Physics Guided Machine Learning for a Lake Stratification Model/Output/adam_fixlr_model_pretrain.pt (torch, 4707 bytes, 5 tensors)

weight_ih_l0 f4 [28, 9]
1.114844 -0.45247048 -0.24476823 -0.25397956 -0.66613173 -0.01806114 0.08719595 0.02378953
-0.3159018 0.22666956 -0.24164334 0.22173186 0.3543716 0.5532037 -0.5536218 -0.022277946
0.12800497 -0.045768857 -0.03378412 -0.60711336 0.034640905 0.15548187 -0.30388123 0.122426994
0.3040992 -0.4240939 -0.20060393 0.8338189 -0.009210534 0.48349115 0.35598618 0.023269441
-0.13449778 -0.08305077 0.2552692 0.02718191 0.078734934 -0.76999474 -0.30268613 0.5240271
0.5371769 -0.797536 -0.17438307 0.96001595 0.40036118 0.42245227 -0.5921467 -0.032406423
-0.068805166 -0.16462351 -0.16696683 0.15762018 0.00902862 0.05888649 -0.012499807 0.35777828
0.16193871 0.47072497 0.3148705 -0.32328972 -0.043013923 0.18502703 -0.4735165 0.52472603
-0.56943274 -0.26219383 -0.33116823 -0.2878789 0.09152425 -0.0052531636 -0.110732704 0.41424814
-0.23983143 -0.26421538 0.2641663 0.1603394 0.40051633 0.47118598 0.0042149676 -0.3393489
0.21494688 0.04569542 0.20554064 0.25205415 0.08192284 0.059919596 0.13237368 0.15261678
-0.27115086 0.1592523 0.24576148 0.010817914 0.13487884 0.2597997 0.4862495 0.07925422
-0.11387782 -0.07603596 0.04199429 0.27837342 -0.38942146 -0.34115022 -0.24368007 -0.14198367
0.31536466 0.3185423 0.0954149 -0.27171654 0.3665304 -0.4869013 -0.19597784 0.07317137
-0.21533218 0.0684217 0.21375914 -0.17912441 0.22427362 0.1086022 0.5877819 0.28181607
0.0823543 0.40961063 0.39653525 -0.15038161 -0.063892834 0.3811668 -0.116551824 0.53754956
-0.06422169 -0.051146027 -0.2569863 -0.22464222 0.011569085 0.078879245 0.1354158 -0.3761781
-0.29852173 -0.14656468 -0.3552384 -0.2800094 -0.013848624 -0.0752922 0.0597251 0.078246415
0.7401252 0.19949496 0.46447313 0.76175654 0.8783522 0.05712111 0.051717304 0.16571514
0.2440387 0.34057388 0.08707604 -0.2889291 -0.20039253 -0.26582152 0.08244735 0.09940473
-0.13294624 0.10135897 0.07533493 -0.016701577 -0.24421823 -0.18131822 -0.09441833 0.54459953
-0.42226252 -0.397742 -0.084901474 0.18070889 0.24311738 0.61791766 0.77554154 0.9420095
0.07589048 -0.3360742 0.14381018 0.26147014 0.3514263 -1.2792144 -0.0015815701 0.010168577
0.045474783 -0.037964445 0.01628188 0.020067804 0.19342875 0.52874345 -0.64742047 0.24523969
0.5364533 0.3812001 -0.2706365 0.06478442 0.21134995 0.002405725 2.3145957 -0.33135477
0.088448055 0.041720044 0.06094133 0.09983931 -0.11368422 -0.018074645 0.013227632 0.16432638
-0.34496891 -0.037646238 0.06829238 0.27871573 -0.13555068 0.0275789 0.12074603 0.029802352
0.6049679 -0.35532358 0.06271729 0.24026361 0.4808453 -0.17892735 0.16186638 -0.06665752
-0.13397816 1.6208004 -0.48458064 0.16941638 0.23967254 0.4421827 -0.10737617 -0.18943727
0.10454275 0.1760236 1.405696 -1.095493 0.3499076 0.40560487 0.5846956 -0.041213736
-0.17066805 0.22153983 0.07744566 0.42785117 -0.5834948 0.46757218 0.6389025 0.8675771
-0.1551169 -0.16615269 0.13368396 0.05580325
00000000: 35b3 8e3f 36aa e7be 86a4 7abe 9c09 82be
00000010: 9c87 2abf f5f4 93bc ca93 b23d 43e2 c23c
00000020: e1bd a1be 111c 683e 5a71 77be ad0d 633e
00000030: 3270 b53e c29e 0d3f 29ba 0dbf 3d80 b6bc
00000040: bc13 033e 2078 3bbd 3861 0abd c86b 1bbf
00000050: 9fe3 0d3d a436 1f3e 5296 9bbe 01bb fa3d
00000060: e4b2 9b3e d622 d9be 1e6b 4dbe 2875 553f
00000070: c8e7 16bc 278c f73e d243 b63e 8e9f be3c
00000080: c9b9 09be 8616 aabd a5b2 823e 99ac de3c
00000090: c83f a13d 601e 45bf adf9 9abe a426 063f
000000a0: 6d84 093f 522b 4cbf 7a91 32be 9bc3 753f
000000b0: 24fc cc3e aa4b d83e ed96 17bf 99bc 04bd
000000c0: b9e9 8cbd 1193 28be 5af9 2abe 2f67 213e
000000d0: c7ec 133c f632 713d fecb 4cbc b72e b73e
000000e0: 43d3 253e dd02 f13e b536 a13e 3b86 a5be
000000f0: 5e2f 30bd ba77 3d3e c170 f2be 7254 063f
00000100: 58c6 11bf 453e 86be e28e a9be dd64 93be
00000110: 1171 bb3d bb22 acbb d4c7 e2bd 5518 d43e
00000120: 5f96 75be 3d47 87be ce40 873e 0330 243e
00000130: 7a10 cd3e 4a3f f13e b61d 8a3b 24bf adbe
00000140: 091b 5c3e 1f2b 3b3d 3f79 523e 3e0d 813e
00000150: 29c7 a73d 406e 753d f78c 073e 9347 1c3e
00000160: 49d4 8abe 0913 233e e6a8 7b3e 9f3d 313c
00000170: ae1d 0a3e 7704 853e b2f5 f83e 0950 a23d
00000180: c638 e9bd beb8 9bbd 3402 2c3d f686 8e3e
00000190: 4062 c7be 3eab aebe 4587 79be 2b64 11be
000001a0: 7a77 a13e fa17 a33e e368 c33d 6e1e 8bbe
000001b0: dfa9 bb3e 214b f9be 6aae 48be dfda 953d
000001c0: 0a80 5cbe ad20 8c3d ade3 5a3e 646c 37be
000001d0: fca7 653e d56a de3d e078 163f 324a 903e
000001e0: 5fa9 a83d 7cb8 d13e ab06 cb3e a3fd 19be
000001f0: 3fda 82bd 4b28 c33e b9b2 eebd d99c 093f
00000200: a986 83bd 7f7e 51bd b593 83be 9c08 66be
00000210: 428c 3d3c 718b a13d 71aa 0a3e 6a9a c0be
00000220: d7d7 98be 0d15 16be cfe1 b5be 645d 8fbe
00000230: 57e5 62bc cc32 9abd 4ea2 743d a83f a03d
00000240: d878 3d3f 6848 4c3e 6ccf ed3e 7a02 433f
00000250: b1db 603f d3f7 693d 86d5 533d 3bb1 293e
00000260: 48e5 793e b35f ae3e ec54 b23d 84ee 93be
00000270: b333 4dbe c219 88be 28da a83d b594 cb3d
00000280: 0f23 08be 4b95 cf3d 3349 9a3d bfd1 88bc
00000290: 5814 7abe 7cab 39be 665e c1bd e06a 0b3f
000002a0: cb32 d8be d7a4 cbbe d3e0 adbd c00b 393e
000002b0: c3f3 783e da2f 1e3f e489 463f 8927 713f
000002c0: 786c 9b3d eb11 acbe fa42 133e 6adf 853e
000002d0: 26ee b33e 4cbd a3bf b04c cfba 1a9a 263c
000002e0: c443 3a3d 9b80 1bbd 9461 853c 3c65 a43c
000002f0: 3012 463e bb5b 073f 59bd 25bf 1d20 7b3e
00000300: 0155 093f a92c c33e de90 8abe b2ad 843d
00000310: 1f6c 583e 5ea9 1d3b 5622 1440 55a7 a9be
00000320: 4124 b53d a3e2 2a3d 9e9d 793d 8d78 cc3d
00000330: 46d3 e8bd 4711 94bc b6b8 583c 2d45 283e
00000340: c49f b0be f132 1abd e0dc 8b3d d4b3 8e3e
00000350: cccd 0abe 25ed e13c b249 f73d 1024 f43c
00000360: 2ddf 1a3f f9ec b5be ec71 803d aa07 763e
00000370: 5b31 f63e bb38 37be 4dc0 253e bd83 88bd
00000380: 9231 09be 6376 cf3f f41a f8be 7d7b 2d3e
00000390: b86c 753e c565 e23e 0ae8 dbbd d8fb 41be
000003a0: 821a d63d 883f 343e d9ed b33f 1d39 8cbf
000003b0: 1727 b33e 71ab cf3e 9cae 153f bccf 28bd
000003c0: 9bc3 2ebe 56db 623e d59b 9e3d 4f0f db3e
000003d0: ea5f 15bf 9f65 ef3e 1d8f 233f 8819 5e3f
000003e0: f7d6 1ebe ee23 2abe 73e4 083e f391 643d

weight_hh_l0 f4 [28, 7]
0.18475711 0.02887702 0.10837262 0.29963428 -0.08359528 0.4660505 1.0082293 -0.12534954
0.2734541 0.7900036 -0.002155534 0.28928468 0.7568306 1.0953252 1.0717432 0.99130493
-0.042246077 0.76469135 1.1382102 0.5099775 0.66023606 0.79806143 0.6830035 -0.9537025
0.15618464 0.64723295 0.7184845 0.014092711 0.22943148 -0.068756886 1.0411605 0.7006122
-0.19416331 0.5376061 1.0786684 0.5172207 0.4346296 0.006766276 0.7281532 0.98786986
0.73169297 1.0555022 0.8483516 0.9256695 -0.3885267 -0.5565667 0.47020915 0.42107072
0.6585155 -0.040128168 -0.18206243 0.07304461 0.29304472 0.07149157 1.1223243 1.3026718
-0.62801117 -0.49171352 0.06494999 -0.047284305 -0.59609914 -0.034025002 0.30744588 -0.25691965
-0.3707081 0.2601439 -0.47444552 -0.70735973 0.27075732 0.15681413 -0.0169306 -0.1610551
-0.15264429 -0.2723364 -0.1464486 -0.06264037 0.069503695 -0.8525068 -0.8292051 0.69762814
0.009690293 -1.0518264 -0.028610893 0.23544657 -0.44309103 -0.3502172 0.1951152 -0.15806593
-0.67981225 -0.301857 -0.08163803 -0.48509938 -0.2922978 0.43424696 -0.19552131 -0.15494037
-0.12037566 0.03615479 -0.029541427 1.2532961 -0.71912366 0.70366335 0.23948312 -0.067469016
-0.44034132 0.14623515 0.8761411 -0.8407848 0.58060265 0.38120326 -0.5452142 -0.330855
0.36934096 -0.37636888 0.07828046 -0.37142646 0.1332269 0.4508403 -0.25650284 -0.17927802
0.2456783 0.3221722 0.84549034 -0.15284966 -0.8506403 -0.3843746 0.4332302 0.48824012
0.098233424 0.25141418 0.57739365 0.08514541 -0.28038844 0.68064237 0.4703432 -0.15338199
0.3201592 0.16907027 -0.58286154 -0.332928 0.112788975 0.3452067 0.5006991 0.29557055
0.6359627 0.14389977 -0.22908731 -1.1471219 -0.695753 0.6599782 0.38194227 -0.78019017
0.06795466 1.4651898 -1.1870621 -0.6715401 1.2471793 -0.55570704 -1.0894845 0.21205746
1.0201844 -1.6509793 -0.54879975 0.9705014 -1.2691324 -1.461815 1.0219938 0.4644499
-0.8935755 -0.6255655 0.48900187 -0.95022666 -0.5094503 0.2680888 0.8045135 -1.0362391
-0.8392859 0.6151689 -0.32890245 -0.9419736 0.16849497 0.87360907 -1.2724363 -0.46888363
0.3079709 -0.58874154 -1.1990113 0.7062669 0.37788978 -0.3039999 -0.5396739 0.78676784
-1.1178508 -0.46998078 0.97946066 0.89034367
00000000: f830 3d3e 808f ec3c 77f2 dd3d aa69 993e
00000010: 0134 abbd 2c9e ee3e a80d 813f a15b 00be
00000020: 2d02 8c3e ad3d 4a3f dc43 0dbb 1f1d 943e
00000030: a6bf 413f 9e33 8c3f e22e 893f 29c6 7d3f
00000040: 390a 2dbd d0c2 433f dfb0 913f e38d 023f
00000050: 3b05 293f c14d 4c3f 51d9 2e3f d925 74bf
00000060: deee 1f3e 0fb1 253f 9aee 373f 1de5 663c
00000070: 16f0 6a3e 69d0 8cbd bf44 853f 525b 333f
00000080: bfd2 46be 8ea0 093f ce11 8a3f 9368 043f
00000090: c587 de3e a3b7 dd3b 4068 3a3f 0ae5 7c3f
000000a0: 3b50 3b3f b21a 873f 922d 593f adf8 6c3f
000000b0: f9ec c6be 287b 0ebf 41bf f03e 9596 d73e
000000c0: 7994 283f 6f5d 24bd 936e 3abe 6a98 953d
000000d0: f509 963e 2c6a 923d 53a8 8f3f f3bd a63f
000000e0: 57c5 20bf e0c1 fbbe 8004 853d 30ad 41bd
000000f0: f499 18bf cd5d 0bbd 8c69 9d3e f98a 83be
00000100: 74cd bdbe 9531 853e 86ea f2be 8715 35bf
00000110: b4a0 8a3e e293 203e 0bb2 8abc a1eb 24be
00000120: c94e 1cbe ad6f 8bbe 9ff6 15be 9849 80bd
00000130: f457 8e3d e33d 5abf c946 54bf c297 323f
00000140: 09c4 1e3c 3fa2 86bf 6461 eabc e818 713e
00000150: d4dc e2be ab4f b3be 47cc 473e 09dc 21be
00000160: 2d08 2ebf 008d 9abe d731 a7bd f25e f8be
00000170: 0fa8 95be 9e55 de3e bd36 48be b0a8 1ebe
00000180: 8487 f6bd 0c17 143d dd00 f2bc 026c a03f
00000190: 7d18 38bf 4823 343f 103b 753e 322d 8abd
000001a0: 6b74 e1be abbe 153e c84a 603f ac3d 57bf
000001b0: 60a2 143f 132d c33e 2893 0bbf d465 a9be
000001c0: 421a bd3e 6cb3 c0be 8151 a03d 9c2b bebe
000001d0: a26c 083e 8ad4 e63e 5754 83be a894 37be
000001e0: 1893 7b3e c1f3 a43e 0e72 583f 9f84 1cbe
000001f0: 90c3 59bf bfcc c4be 59d0 dd3e 9cfa f93e
00000200: 9b2e c93d 5cb9 803e 12d0 133f b760 ae3d
00000210: 138f 8fbe 943e 2e3f d3d0 f03e 2b10 1dbe
00000220: e8eb a33e c220 2d3e 6a36 15bf 8a75 aabe
00000230: e8fd e63d efbe b03e d12d 003f 0655 973e
00000240: 74ce 223f 765a 133e dd95 6abe e4d4 92bf
00000250: de1c 32bf 55f4 283f f08d c33e 8bba 47bf
00000260: d02b 8b3d 578b bb3f a7f1 97bf 0dea 2bbf
00000270: 92a3 9f3f d142 0ebf 3a74 8bbf 9725 593e
00000280: 6795 823f 4a53 d3bf 247e 0cbf c872 783f
00000290: ee72 a2bf c11c bbbf b1d0 823f 61cc ed3e
000002a0: 5dc1 64bf 1025 20bf 745e fa3e 0e42 73bf
000002b0: 566b 02bf ef42 893e 99f4 4d3f 7ca3 84bf
000002c0: 71db 56bf b67b 1d3f e765 a8be 2f25 71bf
000002d0: f289 2c3e d8a4 5f3f 31df a2bf 8411 f0be
000002e0: 5dae 9d3e c4b7 16bf 3479 99bf e8cd 343f
000002f0: c57a c13e e0a5 9bbe 1228 0abf 9e69 493f
00000300: bc15 8fbf 52a1 f0be efbd 7a3f 90ed 633f

bias_ih_l0 f4 [28]
-0.30477533 0.20481142 -0.24560063 0.37353647 0.7849694 -0.33603203 0.47766975 -0.59970903
0.34752604 1.0070097 0.46345076 0.49335164 0.78303146 0.39147684 -0.77464354 -0.86376846
0.2543507 -0.9324705 -1.0338538 0.113057084 0.069862574 0.17176227 0.49980915 0.46197534
1.2526069 0.5459273 0.29457173 0.22451214
00000000: 830b 9cbe 16ba 513e bb7e 7bbe 2c40 bf3e
00000010: c1f3 483f 640c acbe 2191 f43e 8886 19bf
00000020: efee b13e b2e5 803f 6b49 ed3e 9698 fc3e
00000030: c074 483f a76f c83e 0a4f 46bf ee1f 5dbf
00000040: 413a 823e 63b6 6ebf 5255 84bf 798a e73d
00000050: 1c14 8f3d 73e2 2f3e fce6 ff3e 0888 ec3e
00000060: 6c55 a03f e4c1 0b3f 1bd2 963e 83e6 653e

bias_hh_l0 f4 [28]
0.0930447 0.16707452 0.09456643 0.2947293 1.1858416 -0.35988933 -0.025822274 -0.15552841
0.21214737 1.0947056 0.35493624 0.76650894 0.5346555 0.65205234 -0.8776994 -0.5955917
0.16157602 -0.5258886 -0.95874566 0.20423181 -0.4762842 0.7326688 0.64103025 0.81390566
1.0175463 1.0338247 0.69417 0.24985747
00000000: 388e be3d 9515 2b3e 0bac c13d c2e6 963e
00000010: a8c9 973f 6a43 b8be 3c89 d3bc d742 1fbe
00000020: 293d 593e 501f 8c3f 34ba b53e ee39 443f
00000030: 2fdf 083f e7ec 263f e8b0 60bf b378 18bf
00000040: 2f74 253e a3a0 06bf 5b70 75bf 2522 513e
00000050: 86db f3be 2f90 3b3f 8f1a 243f 1f5c 503f
00000060: f53e 823f 5e54 843f 20b5 313f a3da 7f3e

weight f4 [1, 7]
-3.6360047 -3.1288962 3.6047566 -3.3950562 -3.4275186 3.5428073 3.5169315
00000000: 4db4 68c0 d63f 48c0 55b4 6640 9a48 59c0
00000010: 775c 5bc0 5bbd 6240 6815 6140
