Physics Guided Machine Learning for a Lake Stratification Model/Output/adam_fixlr_model_finetune.pt (torch, 4707 bytes, 5 tensors)

weight_ih_l0 f4 [28, 9]
1.1744285 -0.69988734 -0.15427347 0.020786168 -0.5579262 0.018819416 -0.12531729 0.014236966
-0.42979065 0.15259722 -0.2441266 0.26950628 0.32828447 0.74253625 -0.3667538 -0.08296079
-0.03845839 -0.24582738 0.17240429 -0.8485324 0.012108405 0.18051635 -0.28959417 0.22599994
0.53367406 -0.12654749 -0.20589842 0.8346566 -0.08506681 0.47674492 0.29772618 -0.029395213
-0.08699539 -0.23104866 0.06387152 0.02640188 0.30454063 -0.6532468 -0.19799377 0.08140883
0.4089412 -0.7388772 -0.9115004 1.0928383 0.49360862 0.38971293 -0.78652954 0.004759455
-0.13243838 -0.2412719 -0.033441104 0.26745093 -0.06558976 0.0026857755 0.07917206 0.31110805
0.17706357 0.34788516 0.24705443 -0.25554094 -0.22551195 -0.0380275 -0.3210601 0.48238674
-0.82787555 -0.25717288 -0.36489683 -0.414541 -0.058761906 0.4357412 -0.054571368 0.5165205
-0.30103618 -0.2147936 0.2655825 0.26906246 0.59437627 0.5385534 -0.029366773 -0.42235008
0.13264032 0.12078124 0.07308802 0.42542806 0.113415666 0.11533013 0.25728232 -0.08005599
-0.14422965 0.17609115 0.22354072 -0.20411524 0.2093815 0.19426198 0.56577224 0.17714901
0.0115162395 -0.13468388 0.114546835 0.4216646 -0.16525386 -0.17193542 -0.9893622 -0.5082637
0.33853847 0.24759485 0.17991196 -0.29351437 0.41382852 -0.49442476 -0.1700991 0.009708979
-0.27267715 0.132019 0.38510484 -0.040507067 0.20549563 0.32781857 0.5333113 0.3369149
0.065752335 0.41796157 0.36378625 -0.278833 0.046993893 0.44690344 -0.019261876 0.5520647
-0.23839526 -0.028810102 -0.57688177 -0.18110788 0.10795702 0.14045018 0.1197713 -0.42236575
-0.37770957 -0.106084496 -0.28286517 -0.41605136 0.008645483 -0.11696139 0.063364424 0.02583214
0.8718512 0.14887598 0.39556843 0.4062419 1.498875 -0.13462304 0.07860539 0.0934447
0.32821575 0.3601691 0.15444024 -0.34232157 -0.06966113 -0.57749146 0.09134379 0.24455659
-0.06674643 0.16183746 -0.073514126 -0.07174651 -0.4374539 -0.19557518 -0.19013944 0.8587563
-0.20341747 -0.03468391 0.2700062 0.38708568 0.14619756 0.7126892 0.6570023 0.9661119
0.07465936 -0.40451196 -0.03453774 0.37125677 0.59173006 -1.4610368 0.07643637 -0.038577605
0.07286311 0.016423553 0.017624678 0.09952847 0.11864557 0.6256577 -0.80608135 0.24905896
0.59397477 0.44478178 -0.25355622 -0.0047196317 0.017010884 -0.049292963 2.3934245 -0.29668996
0.2181343 0.03869741 0.09256906 0.072295256 -0.1212494 0.008880002 0.22605425 0.11161531
-0.85436445 0.15459485 -0.026509803 0.02569034 -0.31019852 -0.109874465 0.18782629 0.0028355978
0.7855838 -0.32756174 0.06213749 0.30156258 0.5969163 -0.20048249 0.2132772 -0.027208747
-0.14225839 1.5648485 -0.36135787 0.1971014 0.12161891 0.2814793 -0.23238681 -0.12330513
0.060056966 0.11142617 1.313002 -0.9699785 0.5296627 0.43563652 0.653551 0.09807951
-0.18623616 0.068084724 0.18307455 0.4472962 -0.6060111 0.65063477 0.5906076 0.9181074
-0.2604663 -0.33627936 0.14406405 0.098983295
00000000: ac53 963f d12b 33bf ddf9 1dbe c147 aa3c
00000010: 40d4 0ebf 2d2b 9a3c 2d53 00be 2a42 693c
00000020: 850d dcbe 7242 1c3e 53fc 79be bafc 893e
00000030: e714 a83e db16 3e3f 27c7 bbbe 59e7 a9bd
00000040: 8b86 1dbd 2cba 7bbe c08a 303e 6b39 59bf
00000050: 5562 463c 47d9 383e b045 94be 876c 673e
00000060: dd9e 083f aa95 01be 09d7 52be 0eac 553f
00000070: 8237 aebd e917 f43e 916f 983e 3bce f0bc
00000080: a42a b2bd 0598 6cbe 12cf 823d c148 d83c
00000090: c0ec 9b3e 2f3b 27bf e1be 4abe acb9 a63d
000000a0: be60 d13e 0e27 3dbf 1758 69bf 20e2 8b3f
000000b0: 45ba fc3e 7488 c73e 005a 49bf 34f5 9b3b
000000c0: ed9d 07be fb0f 77be 8af9 08bd 54ef 883e
000000d0: ed53 86bd d603 303b f624 a23d 8e49 9f3e
000000e0: 2750 353e 011e b23e d6fb 7c3e 43d6 82be
000000f0: 9bec 66be b9c2 1bbd fd61 a4be 65fb f63e
00000100: a7ef 53bf 2aac 83be c2d3 babe b83e d4be
00000110: 53b0 70bd 7819 df3e 3a86 5fbd b03a 043f
00000120: 6a21 9abe daf2 5bbe 6efa 873e 8ec2 893e
00000130: 0b29 183f a3de 093f 9692 f0bc 453e d8be
00000140: ddd2 073e 285c f73d 2caf 953d b5d1 d93e
00000150: 7946 e83d 3432 ec3d 82ba 833e 65f4 a3bd
00000160: f0b0 13be 3d51 343e dce7 643e 9603 51be
00000170: 1b68 563e 9dec 463e 73d6 103f 8d66 353e
00000180: 9cae 3c3c 92ea 09be 8897 ea3d 6ce4 d73e
00000190: 4f38 29be d70f 30be d746 7dbf 921d 02bf
000001a0: ea54 ad3e 8189 7d3e d73a 383e 8447 96be
000001b0: 55e1 d33e 3e25 fdbe 752e 2ebe 6912 1f3c
000001c0: 579c 8bbe fd2f 073e 762c c53e bdea 25bd
000001d0: 726d 523e d6d7 a73e 1787 083f 1c80 ac3e
000001e0: 29a9 863d 0fff d53e 3142 ba3e 33c3 8ebe
000001f0: ab7c 403d 87d0 e43e 15cb 9dbc 1d54 0d3f
00000200: e31d 74be 2a03 ecbc 86ae 13bf 5874 39be
00000210: 9218 dd3d 2cd2 0f3e a84a f53d 5340 d8be
00000220: 2663 c1be d442 d9bd b4d3 90be af04 d5be
00000230: c9a5 0d3c 7489 efbd 35c5 813d ed9d d33c
00000240: a431 5f3f f272 183e f287 ca3e f0fe cf3e
00000250: 23db bf3f 9fda 09be ddfb a03d ef5f bf3d
00000260: e50b a83e 1668 b83e 9525 1e3e c644 afbe
00000270: 7faa 8ebd 7bd6 13bf 7412 bb3d 0b6d 7a3e
00000280: 5ab2 88bd b8b8 253e 938e 96bd d6ef 92bd
00000290: f5f9 dfbe dc44 48be eab3 42be 74d7 5b3f
000002a0: ab4c 50be b710 0ebd 413e 8a3e 1830 c63e
000002b0: d0b4 153e cd72 363f 4d31 283f 1c53 773f
000002c0: 02e7 983d 311c cfbe 7277 0dbd 5e15 be3e
000002d0: 9f7b 173f 4103 bbbf ac8a 9c3d 8d03 1ebd
000002e0: 4139 953d b08a 863c a161 903c 95d5 cb3d
000002f0: 73fc f23d 1a2b 203f 595b 4ebf 5009 7f3e
00000300: bb0e 183f 70ba e33e 1fd2 81be 24a7 9abb
00000310: 695a 8b3c 6be7 49bd de2d 1940 bfe7 97be
00000320: 995e 5f3e 2d81 1e3d d994 bd3d 890f 943d
00000330: 9b51 f8bd 6e7d 113c c47a 673e 9196 e43d
00000340: a1b7 5abf 1d4e 1e3e 162b d9bc 8c74 d23c
00000350: 57d2 9ebe dd05 e1bd 8955 403e 70d5 393b
00000360: 051c 493f 2cb6 a7be e183 7e3d 6966 9a3e
00000370: 82cf 183f 484b 4dbe 5765 5a3e e1e4 debc
00000380: 2fac 11be f54c c83f e603 b9be f3d4 493e
00000390: 5613 f93d 0e1e 903e cff6 6dbe 6687 fcbd
000003a0: 4bfe 753d 6733 e43d 7310 a83f 8350 78bf
000003b0: fa97 073f c00b df3e 1e4f 273f e9dd c83d
000003c0: b1b4 3ebe 0170 8b3d e577 3b3e 0204 e53e
000003d0: 8b23 1bbf 0090 263f 0f32 173f 1609 6b3f
000003e0: d75b 85be cf2c acbe 8785 133e c1b7 ca3d

weight_hh_l0 f4 [28, 7]
0.18528764 0.106684715 0.096881054 0.37173823 0.05306923 0.6025292 0.91809154 -0.053604223
0.3344237 0.63537365 -0.14163987 0.2713828 0.78174937 0.9847505 1.2614727 1.0477662
-0.022337133 0.8135635 1.1922058 0.7126154 0.6323875 0.9335109 0.81925267 -1.0494655
0.09910156 0.7361037 0.73676926 -0.154186 -0.00074349274 -0.22544007 1.3465275 0.7881474
-0.18496071 0.8417087 1.2238444 0.6210028 0.4616276 -0.088867046 0.7522642 1.0132164
0.766182 0.98460484 0.98368937 1.1403024 -0.6448448 -0.38063788 0.68345094 0.21094956
0.77886695 0.02942221 -0.15648763 0.05506464 0.31272617 0.14791827 1.2734565 0.8432903
-0.61738676 -0.45726424 -0.08494871 -0.075747065 -0.66945535 -0.08893575 0.22900984 -0.07607878
-0.43575275 0.26878312 -0.48535278 -0.78137064 0.4485132 -0.07623888 0.042553287 -0.14842476
-0.24296375 -0.36647683 -0.17031527 -0.16083299 -0.046132796 -1.0663699 -1.1634233 0.92469424
0.0341021 -1.131954 0.044942964 0.30638695 -0.3297012 -0.380762 0.26445374 -0.19463797
-0.7042753 -0.14201547 -0.1568192 -0.54999334 -0.23450251 0.36129904 -0.14638777 -0.09665722
-0.35602415 0.15835631 0.020858206 1.490708 -0.50817037 0.6956992 0.27330142 -0.060442727
-0.48968965 0.16474652 1.0058402 -0.87345695 0.5266965 0.4501613 -0.5421099 0.020154767
0.51328754 -0.28081697 -0.11365578 -0.2833359 0.21999419 0.1928482 -0.27668574 -0.27079174
0.18210375 0.5128281 0.9611066 -0.1919637 -0.90066314 -0.49005097 0.32395756 0.9272899
-0.19614513 0.19840012 0.6438028 -0.19032961 -0.23537904 0.77858275 0.5156769 -0.2059066
0.36863938 0.22113688 -0.75444716 -0.55689484 0.14584489 0.2726078 0.5064499 0.21168846
0.5767701 0.2502976 -0.54280454 -1.2004914 -0.7337976 0.5850904 0.42423627 -0.78380597
0.043564174 1.5882769 -0.9487745 -0.5495451 1.199017 -0.42660233 -0.9655348 -0.013660832
1.0754493 -1.5942276 -0.43703532 0.6320795 -1.3862054 -1.438265 0.98949677 0.4597823
-0.8175863 -0.5182139 0.47554156 -0.92176825 -0.47128153 0.21310191 0.76263964 -0.92910445
-0.85123616 0.55113953 -0.36857572 -0.93562585 0.07644557 0.9235389 -1.3191545 -0.3790272
0.19509713 -0.5283701 -1.2512496 0.54719484 0.2555929 -0.33062893 -0.46731025 0.8338913
-1.0432129 -0.39183772 1.183264 0.96954644
00000000: 0bbc 3d3e 847d da3d 9369 c63d 7954 be3e
00000010: 1f5f 593d 5b3f 1a3f 0c08 6b3f 1a90 5bbd
00000020: 9539 ab3e d9a7 223f 0b0a 11be b0f2 8a3e
00000030: ba20 483f 9c18 7c3f f077 a13f 341d 863f
00000040: 5dfc b6bc b345 503f 339a 983f f66d 363f
00000050: 26e4 213f 92fa 6e3f 8bba 513f e354 86bf
00000060: c2f5 ca3d 4b71 3c3f e99c 3c3f efe2 1dbe
00000070: f4e6 42ba c3d9 66be 035b ac3f 07c4 493f
00000080: 5766 3dbe 397a 573f efa6 9c3f 0afa 1e3f
00000090: 745a ec3e edff b5bd 6394 403f 13b1 813f
000000a0: 8124 443f 100f 7c3f 11d3 7b3f 6ef5 913f
000000b0: 8c14 25bf f8e2 c2be a4f6 2e3f 2903 583e
000000c0: d363 473f d906 f13c 4b3e 20be 768b 613d
000000d0: a51d a03e e377 173e 9f00 a33f e0e1 573f
000000e0: 0f0d 1ebf 8a1e eabe 97f9 adbd 4721 9bbd
000000f0: 6d61 2bbf f223 b6bd 8e81 6a3e 31cf 9bbd
00000100: fc1a dfbe f19d 893e 2980 f8be e807 48bf
00000110: 86a3 e53e 2123 9cbd 5b4c 2e3d a9fc 17be
00000120: 7dcb 78be daa2 bbbe 2067 2ebe 67b1 24be
00000130: bef5 3cbd cf7e 88bf 0eeb 94bf c3b8 6c3f
00000140: a5ae 0b3d dee3 90bf 1d16 383d c0de 9c3e
00000150: 98ce a8be 3df3 c2be 7b66 873e 2d4f 47be
00000160: 634b 34bf 816c 11be 3695 20be 5dcc 0cbf
00000170: 6d21 70be 30fc b83e ade6 15be 38f4 c5bd
00000180: cc48 b6be 2828 223e d4de aa3c 85cf be3f
00000190: 7417 02bf 5819 323f 2aee 8b3e cb92 77bd
000001a0: 9ab8 fabe 50b3 283e 5fbf 803f e09a 5fbf
000001b0: 95d5 063f 8b7b e63e b7c7 0abf 9c1b a53c
000001c0: d066 033f 3ec7 8fbe 5dc4 e8bd 6711 91be
000001d0: 2846 613e 007a 453e c1a9 8dbe 37a5 8abe
000001e0: 6879 3a3e b448 033f 150b 763f 2292 44be
000001f0: dc91 66bf f6e7 fabe c4dd a53e df62 6d3f
00000200: 45da 48be 6729 4b3e 43d0 243f c4e5 42be
00000210: 3407 71be 3351 473f 6703 043f 2ed9 52be
00000220: 4dbe bc3e b571 623e 7323 41bf a990 0ebf
00000230: 5d58 153e 4093 8b3e b3a6 013f dcc4 583e
00000240: 35a7 133f 0227 803e 3df5 0abf b4a9 99bf
00000250: 29da 3bbf 7cc8 153f 7f35 d93e 82a7 48bf
00000260: 5970 323d a84c cb3f e3e2 72bf fdae 0cbf
00000270: 6479 993f 9f6b dabe 4a2d 77bf afd1 5fbc
00000280: 53a8 893f a60f ccbf 18c3 dfbe f6cf 213f
00000290: 2e6f b1bf 1119 b8bf a94f 7d3f 9668 eb3e
000002a0: 564d 51bf aba9 04bf 2f7a f33e 01f9 6bbf
000002b0: d04b f1be 6337 5a3e 5a3c 433f cad9 6dbf
000002c0: 9dea 59bf 7b17 0d3f f5b5 bcbe 2d85 6fbf
000002d0: 7f8f 9c3d 0c6d 6c3f 0eda a8bf da0f c2be
000002e0: 8bc7 473e 4343 07bf f228 a0bf f614 0c3f
000002f0: 13dd 823e 3248 a9be 4a43 efbe e679 553f
00000300: 0088 85bf f49e c8be 3275 973f 3234 783f

bias_ih_l0 f4 [28]
-0.24635361 0.33579198 -0.26351374 0.29718488 0.82522565 -0.29600978 0.33001864 -0.6667237
0.4577604 1.0173079 0.4947873 0.52453965 0.81161374 0.3322751 -0.93494713 -1.0257397
0.100605935 -0.9479107 -1.2787638 0.023614906 0.14172395 0.34377643 0.5195732 0.6554021
1.2334185 0.6894067 0.39846802 0.14226872
00000000: 1f44 7cbe edec ab3e 46eb 86be 9e28 983e
00000010: fd41 533f 988e 97be 34f8 a83e 68ae 2abf
00000020: 925f ea3e 2537 823f c354 fd3e 3b48 063f
00000030: ebc5 4f3f f61f aa3e b258 6fbf 704b 83bf
00000040: 7c0a ce3d 47aa 72bf 88ae a3bf 0c74 c13c
00000050: 1520 113e 7703 b03e c002 053f 6fc8 273f
00000060: a8e0 9d3f f57c 303f 0004 cc3e e4ae 113e

bias_hh_l0 f4 [28]
0.1514665 0.2980551 0.07665308 0.218378 1.226098 -0.31986707 -0.17347327 -0.22254285
0.32238173 1.1050041 0.38627297 0.7976969 0.5632378 0.5928508 -1.0380034 -0.75756305
0.007831301 -0.54132885 -1.2036557 0.11478954 -0.4044225 0.90468305 0.6607943 1.0073327
0.99835694 1.1773044 0.79806614 0.16761404
00000000: 091a 1b3e ae9a 983e 4afc 9c3d 7c9e 5f3e
00000010: c7f0 9c3f 9ec5 a3be faa2 31be 46e2 63be
00000020: 380f a53e c670 8d3f 92c5 c53e dd35 4c3f
00000030: 5a30 103f 12c5 173f 4cdd 84bf a7ef 41bf
00000040: db4e 003c 8794 0abf 6411 9abf c716 eb3d
00000050: 7710 cfbe 4f99 673f d129 293f 47f0 803f
00000060: 5294 7f3f e9b1 963f 104e 4c3f 04a3 2b3e

weight f4 [1, 7]
-3.695327 -3.1984618 3.6656494 -3.4736931 -3.5057635 3.613451 3.4380615
00000000: 3d80 6cc0 99b3 4cc0 009a 6a40 fd50 5ec0
00000010: 6e5e 60c0 c842 6740 3309 5c40
