Physics Guided Machine Learning for a Lake Stratification Model/Output/model_finetune_30_depths.pt (torch, 4707 bytes, 5 tensors)

weight_ih_l0 f4 [28, 9]
000000 93 e0 e2 be ad 3f e7 bd 40 15 e2 3e 94 86 0b be
       -0.44311962 -0.11291442 0.44156837 -0.13625556
000010 00 4a b9 3e 7e c3 67 3e c8 c1 08 3b e8 d3 79 3d
       0.3618927 0.22633168 0.0020867456 0.060993105
000020 88 3d 40 be c2 53 ac 3e 69 ff aa be 31 11 9f 3e
       -0.18773472 0.33657652 -0.33397987 0.31067804
000030 02 70 b2 3d 3d 27 98 bd 6c 3f 04 3d 32 74 40 3e
       0.0871277 -0.07429359 0.032287046 0.18794325
000040 3e c1 82 3d 71 5e bd bd 29 38 b1 bd 92 32 07 3e
       0.06384514 -0.09246529 -0.0865329 0.13202885
000050 e7 35 8a 3e c7 11 b6 bd fc 37 a2 3e 75 e9 59 3b
       0.2699425 -0.088901095 0.31683338 0.0033250723
000060 ef a5 6f be fd 71 f8 bd f2 56 be bd 0e 8d 9a 3e
       -0.23403142 -0.121311165 -0.09293927 0.3018574
000070 cd 79 8b 3e c4 73 d2 3d 74 f7 da 3d 78 b2 e3 3e
       0.27241364 0.10275987 0.10691729 0.44472098
000080 20 c7 5a 3e f4 6a 7b 3d bd 9d 8b bd 09 ba 5c be
       0.21365023 0.061381295 -0.068171956 -0.21555342
000090 fa 44 8e 3d 20 ac a2 be fa 87 68 3e e2 89 ba 3c
       0.0694675 -0.31771946 0.22708121 0.022770826
0000a0 08 a4 b2 bd 54 1a 57 be 4d ec c0 3d 2f 65 e9 bd
       -0.08722693 -0.21006137 0.09420071 -0.11396252
0000b0 d3 79 4f 3e f7 d5 0c 3f da f9 bc 3e fd 14 0f be
       0.20261316 0.55013984 0.36909372 -0.1397285
0000c0 5c 60 9b 3e d1 6f a6 3e 9c b0 af bc cc 81 18 3d
       0.30346954 0.32507184 -0.021446519 0.03723316
0000d0 58 f7 cc 3d ab 02 fd 3c 77 46 fe 3e 7f cf 8c 3e
       0.100081146 0.030885061 0.49663135 0.27502057
0000e0 14 b6 b3 3e cf 23 ab 3e af a2 fe 3d d3 44 72 bd
       0.35099852 0.33425757 0.12433373 -0.059147667
0000f0 bc 5b 02 3d d1 98 a6 3e 23 72 32 be 31 26 d1 3d
       0.031825766 0.32538465 -0.17426352 0.102123626
000100 45 66 ff bd 67 b2 67 3e fd 5d 0a 3f b0 e6 05 3f
       -0.12470678 0.22626649 0.54049665 0.52305126
000110 a7 d5 1b bd b8 5f d5 bd 79 c2 2d 3c 11 3a b4 be
       -0.03804555 -0.104186475 0.010605448 -0.3520055
000120 24 77 1d 3e 7f 62 0e bb 51 39 4a 3e 1c 53 ba 3e
       0.1537748 -0.0021726189 0.19748427 0.36391532
000130 6d 5b ee 3d 6c 87 ae 3d bf 6e e1 bd 85 4b 2d be
       0.11638532 0.085219234 -0.11007451 -0.1692334
000140 26 0f 96 be fc 8b b4 3b 8f ff c0 be 85 fd 29 3d
       -0.29308432 0.0055098515 -0.37694976 0.04150154
000150 8e 05 79 3e 76 63 e2 3d dc f9 1d 3d 01 a3 82 3d
       0.24318525 0.11054127 0.038568363 0.06378747
000160 e2 99 6c 3d 2d 1d cb bd a1 6d 21 3e 17 85 99 be
       0.05776394 -0.09917674 0.15764476 -0.29984352
000170 24 eb 29 be 27 1c 8e be 23 e1 b7 3e 6c bb 95 bc
       -0.16593605 -0.27755854 0.35913953 -0.018277846
000180 a1 91 a1 bd b6 29 68 be e9 a6 b6 bd 61 e3 29 bd
       -0.07889105 -0.22672161 -0.08918554 -0.04147661
000190 2b 62 a9 be 64 0e 18 3e a2 04 23 3f 73 80 3f 3f
       -0.3308271 0.1484924 0.63678944 0.7480537
0001a0 62 2f 3a be e1 fa 4f be 66 87 78 3e 3e da c8 be
       -0.18182138 -0.20310546 0.242704 -0.39229006
0001b0 8c ea c5 3e 46 b4 ac be b2 78 51 3e be fb 04 3e
       0.38655508 -0.33731288 0.20456198 0.12986657
0001c0 da cf 8e 3e fb 91 40 bd ec a6 c9 bd 89 e5 8c 3e
       0.27892953 -0.047014218 -0.09846291 0.2751887
0001d0 ab fa a6 be b7 18 df 3d 25 bd 84 be ec 7b 9a 3e
       -0.3261312 0.10893386 -0.25925556 0.3017267
0001e0 d2 97 f5 3a 59 a0 7b be 58 ea e1 3e 45 02 14 3d
       0.0018737263 -0.24572887 0.44124103 0.036134977
0001f0 72 c2 8b be 6f a8 45 3e 22 6d 49 3f 75 e1 46 bf
       -0.27296788 0.19302534 0.7868215 -0.7768777
000200 3f bb 7c 3e 61 55 bf 3e ef a2 ce 3c b7 89 36 be
       0.24680804 0.37369826 0.025224177 -0.17825972
000210 f3 46 37 be 87 ee 4d be 42 a7 c3 3d bb 1e 89 bf
       -0.17898159 -0.20110522 0.09553386 -1.0712503
000220 42 88 e7 bb 93 c6 b1 bf 9c 22 a4 bf 75 9a a4 bf
       -0.0070658037 -1.3888725 -1.2823062 -1.2859637
000230 ba e9 98 bc 6c 2d d0 3e 05 c6 81 bc 8a ee 26 3e
       -0.018666137 0.40659654 -0.015841493 0.16301933
000240 29 fe 90 3f 84 1f 36 c0 7a 2a 8c bd a7 7f c4 be
       1.1327564 -2.8456736 -0.06844039 -0.3837864
000250 fc 10 97 3d c2 81 20 3e f9 64 a2 3d 97 80 e8 3e
       0.073762864 0.15674499 0.07929415 0.45410606
000260 13 08 e2 3d 34 2a 6e 3f 81 15 77 bf a4 9e 79 3d
       0.11036696 0.93033147 -0.9651719 0.060942307
000270 02 ac 83 3e 71 68 63 3e 54 2e 6c bd 5a b7 dc 3d
       0.2571717 0.2220781 -0.05766137 0.10777159
000280 78 6f ce 3e d8 69 37 be 31 cb c0 be 01 a6 56 3e
       0.4031942 -0.1791147 -0.37655023 0.20961763
000290 6b 88 55 3c 20 9f 60 be ee 9f 8d be fa b2 6a be
       0.013033013 -0.21935701 -0.2766108 -0.22919837
0002a0 06 82 07 3b 82 76 e7 be 03 58 49 be 17 af 02 bf
       0.0020676865 -0.45207602 -0.1966248 -0.51048416
0002b0 b0 27 40 bd 3e e5 58 3e f6 8c 7b 3d ad 0c 5c 3e
       -0.04691285 0.21181199 0.061413728 0.2148921
0002c0 d0 49 db bd e0 e1 9a 3d b0 eb a8 bc 4f bc cb bd
       -0.10707438 0.075626135 -0.020620197 -0.099480264
0002d0 04 7e b5 be 1c 86 94 be 61 14 0a bf 85 3a 11 bf
       -0.35447705 -0.29008567 -0.53937346 -0.5672992
0002e0 da f4 5b bf ad e4 d7 3e 1c 30 58 3d d1 f9 0b be
       -0.8592049 0.42166653 0.052780256 -0.13669516
0002f0 fa f6 ad bc 6e 75 b4 be ca 15 82 bf 73 67 3f be
       -0.021235932 -0.35245842 -1.01629 -0.18691806
000300 f5 9c 3b be e9 5e 19 3e e9 0f 68 be 46 80 f6 3d
       -0.18321593 0.14977612 -0.22662319 0.12036185
000310 fb dc 15 be e3 2b 73 3e b0 78 34 3e b2 62 1a bf
       -0.14635079 0.2374721 0.17624164 -0.6030685
000320 43 60 64 bb 3e 4e 15 3e b6 6f b1 be e0 a0 b9 3d
       -0.0034847416 0.14580628 -0.3465554 0.090638876
000330 73 5e b3 3d b1 09 28 3e 22 43 e2 3d 42 6c 35 bd
       0.08758249 0.16409947 0.11047961 -0.044292696
000340 b6 7a e5 be 17 bc 4f 3d a4 a6 cf 3e c7 95 1a 3e
       -0.44820184 0.050716486 0.40556824 0.15096198
000350 d2 ff d7 bd 3f 9f 42 3d 87 51 cb 3c f0 b5 bc bc
       -0.10546841 0.04751515 0.024819149 -0.023035973
000360 7b 16 c6 bd 59 a5 cc bf 6a 22 89 be 4f 53 a3 bd
       -0.096722566 -1.598796 -0.26784068 -0.07974874
000370 f4 77 1d bf 2c 24 fe 3d b8 1d 69 3d 1e b5 8e bd
       -0.6151116 0.12409243 0.056913108 -0.06968139
000380 1c b6 7b 3e 36 6b 0b be 09 70 f6 be b3 b3 63 3e
       0.24581188 -0.13615116 -0.4813235 0.22236519
000390 63 8d 0f 3f 59 fa f5 3e 9c b4 d6 bd 5d 72 bd be
       0.56075114 0.48042563 -0.10483667 -0.37001315
0003a0 ef 21 2b 3e 45 0b 6b bc f3 2a 1b 3e 2d 21 01 c0
       0.16712163 -0.014345949 0.15153103 -2.01765
0003b0 af 64 f0 39 9f fd 47 be 25 0e 74 bc b0 3e 73 3d
       0.00045851382 -0.19530343 -0.01489595 0.059385955
0003c0 49 5a 3e 3b 64 b0 a8 3d b8 51 2f 3d 3d e8 24 3e
       0.0029045513 0.08236769 0.042802542 0.16104217
0003d0 aa cc 47 bf ac 57 9c 3a 74 da 30 bd ac 36 02 be
       -0.7804667 0.0011927984 -0.043177083 -0.12716168
0003e0 46 5d 10 be 83 14 2a bd cf a0 ce bc 9c 05 d7 bc
       -0.14098081 -0.041523468 -0.025223164 -0.026247792

weight_hh_l0 f4 [28, 7]
000000 8a 76 86 3e db 76 8d be 8e 2f b0 be dd 53 14 bf
       0.26262313 -0.27629742 -0.3441128 -0.57940465
000010 1e 8e fd bc e5 01 3b be 91 f3 28 3f ed 5e 2b 3d
       -0.030951556 -0.18262441 0.6599665 0.041838575
000020 38 ea d4 be 78 6c fe bb b4 78 d3 be d8 d9 2d bf
       -0.41584945 -0.0077643953 -0.41303027 -0.6791053
000030 59 63 b1 be 4b f1 ac 3f 26 c4 c5 3e 6c a9 dc be
       -0.3464611 1.3511137 0.38626212 -0.4309801
000040 ed ca fe bd b5 21 52 3e 18 20 de be c6 d2 fe bd
       -0.12441049 0.2052067 -0.4338386 -0.124425456
000050 a0 7c 9e be 76 11 b2 3e 0e 4b 97 be bd 7b 69 3e
       -0.30954456 0.34778947 -0.2954945 0.22801109
000060 95 e1 ce bb 94 4f 8e be ca 73 57 be 58 4d b0 be
       -0.0063135126 -0.27795088 -0.21040264 -0.3443401
000070 d2 cb 9a be 5b a0 88 3d 5f 69 3d 3e cc 8b cf 3e
       -0.30233628 0.066712104 0.18497227 0.40536344
000080 c9 d7 fe bd 49 1b 50 be e3 e8 bb 3e 65 51 ef bd
       -0.124435015 -0.20322908 0.36701116 -0.11685447
000090 ac a4 1b bf 70 e4 06 be 8c 62 e4 be 1a 2a 8e be
       -0.60798144 -0.1317308 -0.44606435 -0.27766496
0000a0 ad f0 aa bd b6 05 b3 3e f1 47 98 3d 6d 0e 00 bf
       -0.083466865 0.34965295 0.07435597 -0.5002201
0000b0 14 4c da bd 3a 13 ce be 32 4b fd bd 25 1c 3b 3e
       -0.10659042 -0.40249044 -0.12367858 0.18272455
0000c0 73 7b 7d 3e 0e 19 29 be cb 7d 52 be 1d 1b 26 3f
       0.24754123 -0.16513464 -0.20555799 0.6488512
0000d0 c7 35 8a 3c 9c b2 08 be a1 e6 8a be c9 96 c3 bd
       0.016871346 -0.13349384 -0.2712908 -0.09550244
0000e0 48 17 c6 be 82 90 26 3e 6c f6 1a bd a3 f3 40 3d
       -0.38689637 0.16266063 -0.037832662 0.04710735
0000f0 a3 78 26 be 65 1c 44 be e1 28 9a be 90 40 d5 3e
       -0.16256957 -0.19151457 -0.30109313 0.4165082
000100 c5 e5 bf be 27 c3 b8 3e 3d 31 39 3d b5 c2 6b be
       -0.37479988 0.3608639 0.045212973 -0.23023494
000110 02 19 73 bd 4a 15 4c be 10 74 3d 3d c2 09 bb be
       -0.05935002 -0.19929996 0.046253264 -0.36530882
000120 e3 1a 18 3f b4 3d 1f 3f f4 f5 86 3e 82 39 7f 3e
       0.59416026 0.62203526 0.26359522 0.24924281
000130 77 a8 b0 bc 7a 7f 05 bf 97 cd 1c bd 3f 61 0f be
       -0.021564705 -0.5214764 -0.038282003 -0.1400194
000140 ce 42 0b 3e 90 cf 22 3e ec c1 cd 3e c2 89 80 be
       0.13599703 0.15899491 0.40187013 -0.251051
000150 ec e7 5b 3e e5 55 b4 bd 6a e6 30 3d b7 59 b5 3e
       0.2147519 -0.088054456 0.04318849 0.3542001
000160 a7 b1 1f be c2 45 dc bb 2f f3 e8 be f4 ea 6c be
       -0.15595113 -0.006722183 -0.45498034 -0.23136503
000170 3a 3c 5c 3d 29 52 c6 bd 4f d9 0d bc a0 8e 8a 3e
       0.053768374 -0.096836396 -0.008657767 0.2706194
000180 d5 1a da 3e 6a 9a 49 be f0 03 9f be 76 49 05 bf
       0.42598596 -0.1968781 -0.31057692 -0.5206522
000190 29 cc 41 3e 66 ae b5 be 39 96 37 bf 8c 28 f7 3c
       0.18925537 -0.35484618 -0.71713597 0.030170701
0001a0 56 a8 66 3d 9d 9d 05 3f 98 97 87 bf f3 2a 74 3f
       0.05631288 0.52193624 -1.0593138 0.95378035
0001b0 9b ca 14 3f 6b 0f ca bd bc 34 1d 3f cf a7 e6 bd
       0.5812165 -0.09866222 0.6140859 -0.11262476
0001c0 66 85 dc be 45 14 c1 3d 52 b3 00 bf a0 b8 42 3e
       -0.43070525 0.09427694 -0.5027362 0.19015741
0001d0 c8 87 9e be 84 34 03 3f 38 ac 38 3f 6d 3a 64 3e
       -0.30962968 0.5125201 0.72137785 0.22287913
0001e0 b9 df a9 3e eb b4 95 be 28 41 08 bd 4b 1b bf be
       0.331785 -0.29239592 -0.033265263 -0.3732551
0001f0 f6 ee ea 3e 75 c7 49 3d 6f 6e b6 3e 20 3d f7 3d
       0.45885438 0.049262483 0.3563113 0.120722055
000200 bd bb da 3e 1d d8 ca 3e 4a 9e 55 bf 8b ed 99 bc
       0.42721358 0.39618006 -0.83444655 -0.018790027
000210 a4 72 41 bf c2 1d 96 3e 16 e9 1a bf c4 bd b4 3e
       -0.7556555 0.29319578 -0.6051191 0.3530103
000220 04 89 9e 3d 60 fd 84 be 2f f7 f0 3d 97 6f 2f 3e
       0.077409774 -0.2597456 0.117658965 0.17132412
000230 40 9d de 3e d6 8d a7 3e 56 14 89 3d b9 d5 b0 3d
       0.43479347 0.327254 0.06693332 0.08634514
000240 84 30 f6 bc ee 92 87 be b6 b1 e2 3e b5 a6 cf 3e
       -0.03005243 -0.26479286 0.44276208 0.40556875
000250 9e 02 b7 3d 51 cb 2c 3f 51 77 10 3f aa eb 1c 3e
       0.08936046 0.67497736 0.5643206 0.15324274
000260 d8 c3 a5 bd 4e 78 01 be d8 16 37 3e 7f c1 4d be
       -0.08093995 -0.12643549 0.17879808 -0.20093344
000270 e5 20 b0 3e 5e 4d 9d bc be 20 38 be b2 05 0b 3d
       0.34400097 -0.01920193 -0.1798124 0.03394098
000280 98 a9 e9 be d2 17 40 3d 5d 3f 33 bf 6c 21 2c 3e
       -0.45637202 0.046897717 -0.7001856 0.16809624
000290 06 fa 7b bc f3 92 97 be b7 69 5d 3d 2f 89 39 bf
       -0.015379434 -0.296043 0.054055896 -0.7247495
0002a0 bc 4a d8 3d 9f e3 7e be f8 5c 41 3f 6e 69 cd 3e
       0.105611295 -0.24891518 0.75532484 0.401195
0002b0 65 f9 4a 3e 4a 5e f0 3e 83 e5 66 be 9f f4 88 3e
       0.19821699 0.46946937 -0.2254849 0.2674913
0002c0 8f a4 04 be 94 8a 05 3e b8 8b 84 3e 94 0e 9b be
       -0.12953399 0.13041145 0.25887847 -0.3028456
0002d0 2e 97 21 3e 3d 7a dd bd 34 e6 55 3d 47 cf b8 be
       0.15780327 -0.10814331 0.052221492 -0.3609564
0002e0 bd 9d 85 3e 59 a1 88 3d 54 44 b5 be bb 83 aa bb
       0.26096907 0.066713996 -0.35403693 -0.005203692
0002f0 cc b4 37 be 6a c9 99 3e d3 00 49 bf 0d 5b d6 3d
       -0.17940062 0.3003648 -0.7851688 0.10466585
000300 31 54 2b 3e 62 ca 30 bd 43 ad f7 3e cd f4 c5 be
       0.16731335 -0.043161757 0.48374376 -0.3866333

bias_ih_l0 f4 [28]
000000 c6 72 17 be df 7e 09 bf 75 c5 eb be a4 ad 9b 3d
       -0.14789876 -0.53709215 -0.46049085 0.07601479
000010 90 f9 aa be bf 4c c2 be 38 dd de be 40 e1 12 3a
       -0.33393526 -0.37949178 -0.43528152 0.0005603023
000020 d3 cb c6 3f 2a fa 11 3e 5a b7 97 bc 0b c8 fa 3c
       1.5530952 0.14255586 -0.018520046 0.030612966
000030 e8 c0 76 3e 3c 6e 71 3f dc b5 25 be 6b 4c 8e 3e
       0.24097025 0.9430883 -0.16182655 0.27792677
000040 55 b3 ae be 04 e6 1d 3f c0 9d 62 3f fd de 37 3f
       -0.34121194 0.616791 0.8852196 0.7182463
000050 9c 22 33 bf 3e 10 a2 3e ce 47 6b 3f b5 9e ce 3d
       -0.69974685 0.31653017 0.9190644 0.10088865
000060 6f f6 bf bd f7 a5 ca bd 53 94 54 bc 5e 04 85 3f
       -0.09373175 -0.098949365 -0.012974816 1.0391958

bias_hh_l0 f4 [28]
000000 a0 c7 93 be 2d 73 ae be bb cb d8 be f2 68 c5 be
       -0.2886324 -0.34072247 -0.42342934 -0.3855663
000010 67 a6 c7 be a2 4c f8 be 61 c5 79 be b6 eb 42 be
       -0.38994142 -0.48495966 -0.243917 -0.19035229
000020 9f b4 95 3f a8 fd 0f 3e 05 90 c9 3d 2b e7 30 3f
       1.1695746 0.14061606 0.09841923 0.69102734
000030 2e f3 d5 3d 00 e6 5f 3f 88 62 c9 be 1a 0f ad 3e
       0.104467735 0.8746033 -0.39332986 0.33800584
000040 04 0e 51 bd 92 0f 22 3f 9c 4a 32 3f 2e c0 45 3f
       -0.051038757 0.6330501 0.69645095 0.7724637
000050 e1 3f 51 bf d7 03 82 be 4e 7b 97 3f 20 dd 7d 3e
       -0.81738096 -0.25393555 1.1834505 0.24791384
000060 99 ec 90 3e 55 5b ad 3e 2b 48 d8 bd e9 77 20 3f
       0.2830551 0.33858743 -0.1056064 0.6268297

weight f4 [1, 7]
000000 bf 9a 1d 40 f8 fd 95 c0 af 10 2f 40 4e b1 5e 40
       2.46257 -4.687252 2.7353933 3.4795718
000010 ca fc 85 bf 9c f0 4b 40 c0 1f 87 c0
       -1.046777 3.1865606 -4.2226257
