Physics Guided Machine Learning for a Lake Stratification Model/Output/sgd_dynlr_model_finetune.pt (torch, 4707 bytes, 5 tensors)

weight_ih_l0 f4 [28, 9]
00000000: 10b0 0ebf 3769 cebe 97bf ef3e b2e7 d5bd
00000010: cf2a 103f 64a5 353c d776 6ebe 299e afbe
00000020: 24c2 443e b96b d4bd 666c 8dbf 1595 683e
00000030: 6cf4 08bc cd82 113b 513e 2ebe 949a db3c
00000040: a2ed 2e3e 52b6 5c3c 127a c2be f894 9a3e
00000050: 8812 0f3f cebe 983d 402c 5f3e 2388 b73d
00000060: 6314 ddbe 4841 483d 8c56 66be 31be ca3e
00000070: 32a3 88bf 9b92 253e c6a8 5abd b052 82bd
00000080: 7e39 fd3c 99f3 d53d b0d4 e93d f426 143e
00000090: 6df2 7a3d 2366 373e 6f13 debe 68cc 82be
000000a0: b9f6 5cbe 4ed6 20bd 9701 0bbe 20ff d03d
000000b0: d7fe a2be 8a12 a4be 517e 3c3d 4b07 ff3d
000000c0: 44c0 2f3f be94 253f 0f19 3bbe a7a5 323d
000000d0: 2b25 9f3c 5da1 3ebe ce27 3d3f 6739 67be
000000e0: 978f 5b3e e457 de3e 4516 aabd 3150 fe3b
000000f0: 2c97 213e df82 d23e 3ef9 313e f1f2 7e3e
00000100: 4209 ca3d 6e39 0b3e 559e aabd 78e2 da3e
00000110: 5ac8 633e db99 543d 70c4 aa3b bd6f e13d
00000120: a18d 883e d240 74bf e902 3fbe df65 d0be
00000130: 9c69 c3be 9cd7 b03e e586 a33d b753 abbe
00000140: ad25 873e 3de4 0fbd 02c2 71be 824a 9c3e
00000150: 3e09 5f3e ec01 023f 3426 aabd a538 b3be
00000160: 2543 2cbd e035 a33d 5464 913e 1adc dfbe
00000170: 5c3b 163e 858a b1bd 6348 a9be 986b 483e
00000180: 31df 3dbd 47c8 233e c04c e6be 7a76 02bf
00000190: d10a debd 87ea 303e 8b48 303f 7669 463d
000001a0: 24b3 8bbe 95c4 11bf 85e8 443e 2d65 b3be
000001b0: bc72 313e edd5 e6be ed66 0fbe 1353 1c3e
000001c0: 64b8 193f 347f 4bbc 3ae1 26bc 36d1 20be
000001d0: 9114 c83d d4ac 943d 33cb 143e a666 103f
000001e0: 56e5 b03e 28ab be3e 2d21 953e c237 e9ba
000001f0: d6fc 12be cfc1 c9bd 1eef d83e 6cd2 48bf
00000200: 223b 663e ed8f c33e 181a 053f 9dcb 59bd
00000210: f6a8 98bd 48c0 09be 9087 0ebb cee8 233f
00000220: d7b3 3b3e 9b62 163f a3bf 123f 2d39 8c3f
00000230: 88ad 3ebe 49e5 cdbe 42d4 2bbe ab29 d8be
00000240: 06c6 59bf f917 e23e 463c bebd 6aac 14bd
00000250: 90e3 0dbd bbeb 473d 6bf6 fdbc 62ea a63c
00000260: a337 9abe 0911 32bf ca41 7ebe ffdc 70bf
00000270: 20ba 98bf 890d e9bf 776c 223e 1325 003f
00000280: 3abc 623e 472d c33d 8b68 aebf 5ced 1e40
00000290: d517 533e e907 2b3f b670 dcbe df5c 153d
000002a0: ee73 bcbe f1c9 01bf de71 41be cc88 923f
000002b0: 5410 debe e890 39be 3b28 dbbd c575 f9bd
000002c0: e7bc bd3c aa78 023e d934 31bd ed70 20be
000002d0: 7c12 803e 621e 84be 731e 8c3f ebfb 923f
000002e0: 5100 a93f 35a5 b6be f98e 5d3c 5217 d23d
000002f0: f188 88bd 5b8b 153f ec57 00be 7760 ff3c
00000300: 8705 1a3c 9289 34be 131b c3bd 2dba c0bd
00000310: 2588 1d3d 24b1 15bd 6f18 273f 1541 8dbf
00000320: 1f10 6ebd e1ac 44be e377 a3be ed92 73bc
00000330: b040 3e3e dce4 07bd a09d 2e3e c2f3 2a3c
00000340: 4d21 c6be 246e 473e a94e 11be 8692 af3e
00000350: 412f 12be b1fc 033b ab7e 583d 910e 07be
00000360: e106 4dbe 0d14 e9bf f10f 673c 6e7a c93c
00000370: e4d4 fb3e ae96 2fbd b787 eabd ebcb 563d
00000380: cb63 66bd 8423 44bf c9e9 a23e 0e9b ad3d
00000390: b4c2 923c 9432 9f3e 7da2 7dbd 08e6 64bd
000003a0: 4851 533c 06f5 cdbd 8cd7 b7be 9772 c7bf
000003b0: a451 b2be 781d 2ebd 1a28 27bf f27d b63d
000003c0: 836c 523d 0d12 8dbb 5a29 e93c b5b0 013f
000003d0: 6220 07bf db6b 3e3e 3377 723e 5ede fcbd
000003e0: 6b99 ca3d d028 dd3c 724b b8bc 8697 e2bb
-0.557374 -0.40314648 0.4682586 -0.10444583 0.5631532 0.0110867955 -0.23287521 -0.34300354
0.19214684 -0.10372109 -1.1048706 0.2271312 -0.008359056 0.0022203207 -0.1701596 0.026807107
0.17082837 0.013471203 -0.37983757 0.3019178 0.5588765 0.07458268 0.21794224 0.08961513
-0.43179616 0.048890382 -0.22493953 0.3959823 -1.0674803 0.16169207 -0.05338361 -0.06363428
0.030911203 0.10446853 0.1141752 0.14467984 0.06126635 0.17910056 -0.43374202 -0.25546575
-0.21578492 -0.039266877 -0.13574825 0.10204911 -0.31835052 -0.32045394 0.046018902 0.12452563
0.6865275 0.6468009 -0.18271278 0.04361501 0.019426903 -0.18616243 0.7388886 -0.22580491
0.21441494 0.4342643 -0.08305029 0.0077610244 0.15780324 0.41115472 0.17380235 0.24897362
0.09865047 0.13596126 -0.08330981 0.42750907 0.22244397 0.05190454 0.0052114055 0.110076405
0.26670554 -0.9541141 -0.18653454 -0.4070272 -0.3816651 0.34539497 0.079847135 -0.33462307
0.26395932 -0.035129774 -0.23609164 0.30525595 0.2178087 0.5078418 -0.08308068 -0.35004154
-0.04205622 0.0796926 0.28396857 -0.43722612 0.14671081 -0.08668999 -0.3306304 0.19572294
-0.04635543 0.15994368 -0.4498043 -0.5096203 -0.10841907 0.17276965 0.6886069 0.04844042
-0.2728511 -0.56940585 0.19229324 -0.35038128 0.17328924 -0.45085087 -0.14004107 0.15266065
0.6004698 -0.012420464 -0.010185534 -0.15704808 0.09769548 0.07259527 0.1453064 0.5640663
0.3454997 0.37239957 0.29126874 -0.0017793106 -0.14354262 -0.09851419 0.42369932 -0.7844608
0.22483495 0.38195744 0.5199294 -0.053172696 -0.07454102 -0.13452256 -0.0021748282 0.64027107
0.18330322 0.5874421 0.57323664 1.0954949 -0.18620884 -0.40213993 -0.16780189 -0.4221929
-0.85067785 0.44158915 -0.0928884 -0.03629724 -0.03464085 0.048808794 -0.03100129 0.020375434
-0.30120572 -0.69557244 -0.24829784 -0.94087213 -1.1931801 -1.8207256 0.15861689 0.5005657
0.22142115 0.0953012 -1.3625654 2.4832373 0.2061456 0.66808945 -0.43054742 0.036465522
-0.36807197 -0.50698763 -0.18891093 1.1447997 -0.43371832 -0.18121684 -0.10701033 -0.12180666
0.023161365 0.12741342 -0.04326329 -0.15668078 0.25014102 -0.2580443 1.0946792 1.1483129
1.3203222 -0.35672918 0.013522857 0.10258354 -0.066667445 0.58415765 -0.1253354 0.031173928
0.009400732 -0.17630604 -0.09526648 -0.0941051 0.038459916 -0.036545888 0.6527166 -1.1035486
-0.058120843 -0.19206573 -0.31927404 -0.014866573 0.18579364 -0.03317724 0.17052317 0.010434093
-0.3869728 0.19475609 -0.14190163 0.34291476 -0.14275838 0.002013963 0.052855175 -0.1318915
-0.20022155 -1.8209244 0.014102922 0.024594512 0.4918586 -0.04286831 -0.11451667 0.052440565
-0.056247514 -0.7661669 0.3181899 0.0847684 0.017915107 0.31093276 -0.06192254 -0.055883437
0.012897797 -0.100565 -0.35906637 -1.5581845 -0.34827912 -0.042508572 -0.65295565 0.08910741
0.051373016 -0.0043051303 0.0284621 0.5066026 -0.5278379 0.18595831 0.23678283 -0.12347101
0.098925434 0.026997 -0.022496913 -0.0069150357

weight_hh_l0 f4 [28, 7]
00000000: 0a7d 8cbd 8163 153f e78c cfbe 6573 05be
00000010: b4f3 c5be 91f8 0bbd 6b48 1bbe 1dc0 b1bf
00000020: ba5f 133e 6f38 263e 800a b5bf c5b4 9fbd
00000030: e1d2 19bf a869 21be 36ec 07bf b03c b3be
00000040: 89e9 ae3e 0fe5 bf3e d246 cd3d 7bb5 dfbb
00000050: 094e 0cbe da31 5cbf fa62 41bf 313d c13e
00000060: 96b8 e9be cac6 96be eae9 1ebf 4fc4 60bf
00000070: 357c 5bbf 1c0d bebe fc52 923e d8b1 91bb
00000080: daad 26bf 6f9f 92be f829 31bd a54a fdbe
00000090: f529 063f f85b 13be 3276 e43d 535a 323c
000000a0: 81e3 473e dbb2 48be 4da8 91bf 7af0 ba3d
000000b0: ea9b c23e f6f0 4bbf 0465 31be 3989 9dbe
000000c0: f626 85be 1501 323e 7930 3e3e de3e c4bd
000000d0: 5824 923d b2d5 013e 12f2 f33e 125d 10bc
000000e0: c65c 59be f56a f73b eeed 36bf 58d0 89bf
000000f0: 32ea 40ba ece3 6ebd b150 80be d635 323e
00000100: dae5 9bbe d4d9 b0be a68b abbb f097 89be
00000110: 3877 413e 01fb bc3d 2f95 723e 502c 37be
00000120: 5c21 1c3f 0e82 36be 0d26 373e f919 c03d
00000130: 7e85 9b3e 545b c43e 434c 293c 19d9 e5be
00000140: ae53 b9bc 7281 92be c9f0 563e 9fb6 983e
00000150: 2c90 823d 2fbf a73e 0f5f a23d 80fe 33bd
00000160: 3ca6 debe 2664 cc3e 19cc 593e 8a24 f83e
00000170: ffee 0cbf c53d c0be da74 733e 0e11 fd3e
00000180: 6a9a 08be 12ee 20bf 23c1 9d3d 5012 1a3f
00000190: a616 28be 96fa db3d b759 3b3e bc6b cb3d
000001a0: 8d96 bf3d 9541 67be 350a 00bf e43a 43be
000001b0: 2922 c0be 629c 62bd eea2 bd3d 52f8 7b3f
000001c0: bb62 703e d0a9 73be e59d c2be f780 2cbe
000001d0: 8c9b 833e d5e1 0bbf e018 c1be 2ab9 4f3f
000001e0: bf0f a23d 2cba 043e f2cb a6bf 5fcd 85bf
000001f0: 626f 1f3f 1316 49be 6c94 133f e34b 12bf
00000200: 7364 63bc ebc2 0c3f 806e 9cbf c415 9f3d
00000210: 2b59 42bf 778f cf3e cedd e63c 4d2d a0be
00000220: 5020 26be 7c38 cbbe a22d d43c f512 1f3f
00000230: 4dfb 12be 8beb 4bbe e3c4 babe 19cf 663e
00000240: 78b8 3d3f 2487 6abe d91d 943d 97b7 1b3e
00000250: 56d3 923e ed52 3d3e f863 c1be 9f41 15bf
00000260: 9db9 283f 91dc b83c 4b5c 4c3c 1902 ef3d
00000270: 96e9 78be 39cf 00bf 416b 07bf 2e43 383e
00000280: 45bf dd3d 34e3 a83c 0916 a13e e5fc a7be
00000290: 8846 093e a9c1 dcbd b209 7a3e fd0a 3c3e
000002a0: 4da2 7abe f7ad 273e 68a3 033f 0c54 b53e
000002b0: a2e4 8cbf 46ca 343e ada8 7abe 79ab e83d
000002c0: 1705 4c3f df8c dbbe aa43 83bf 35ee 23bf
000002d0: 825b 1dbe 1bbf 053f 8e9e 573e 6847 8b3e
000002e0: 76df c63e dc25 22bf 7451 f1be a0c0 cb3e
000002f0: c72e 5b3e 0edb bebd 13e4 ea3e d1b1 a93e
00000300: ba7e 18bf 0802 20be 5c0b 28bb 3851 223f
-0.06859787 0.58354956 -0.40537187 -0.13032301 -0.38662493 -0.0341726 -0.15164344 -1.3886753
0.14391986 0.16232465 -1.4143829 -0.07798151 -0.600874 -0.15762961 -0.53094804 -0.35007238
0.34162548 0.37479445 0.100232735 -0.006827054 -0.13701643 -0.8601357 -0.7554165 0.37741998
-0.4564864 -0.2944854 -0.62075675 -0.87799543 -0.857364 -0.37119377 0.28578937 -0.0044462495
-0.65109026 -0.28637263 -0.043252915 -0.49471012 0.5240777 -0.14390552 0.111553565 0.010885793
0.1952038 -0.19599478 -1.1379486 0.091278985 0.38009578 -0.7966455 -0.1732369 -0.30768755
-0.26006287 0.17383225 0.18573178 -0.095823035 0.07135838 0.12679175 0.47645622 -0.008811252
-0.21226797 0.007550592 -0.714568 -1.0766706 -0.00073591166 -0.058322832 -0.25061563 0.1740335
-0.304488 -0.3454119 -0.0052351533 -0.26873732 0.18893135 0.09227563 0.23689722 -0.17887998
0.609884 -0.1782305 0.17885609 0.09379954 0.30375284 0.38350928 0.010333124 -0.44892195
-0.02262291 -0.28614384 0.2099029 0.2982683 0.06375155 0.3276305 0.07928287 -0.043943882
-0.43486202 0.39920157 0.21269263 0.48465377 -0.5505218 -0.37547126 0.23775044 0.49427074
-0.13340154 -0.62863266 0.077028535 0.6018419 -0.1641489 0.10741155 0.18295942 0.09932658
0.09354887 -0.22583611 -0.50015575 -0.19065434 -0.37526062 -0.05532492 0.09259592 0.9842578
0.23475163 -0.23795247 -0.3801109 -0.16846071 0.2570461 -0.5464147 -0.3771429 0.8114191
0.079131596 0.12961644 -1.3030989 -1.0453299 0.6227933 -0.19637327 0.5764835 -0.57147044
-0.013878929 0.5498492 -1.2221222 0.07767823 -0.7591731 0.40539142 0.028181937 -0.31284562
-0.16223264 -0.39691532 0.025900666 0.621383 -0.14353676 -0.19914071 -0.36478338 0.22539939
0.741096 -0.22903115 0.072322555 0.15206753 0.28676862 0.18488665 -0.37771583 -0.58303255
0.65908223 0.022566112 0.012473176 0.11670322 -0.24307856 -0.50316197 -0.5289803 0.17994377
0.108274974 0.020616151 0.31462124 -0.3281013 0.13405812 -0.10779125 0.24417761 0.18363567
-0.24475975 0.16374956 0.51421213 0.35415685 -1.1007273 0.17655286 -0.24478407 0.11360831
0.79695266 -0.42880914 -1.0255024 -0.6403535 -0.15366939 0.5224473 0.21056578 0.27202916
0.38842362 -0.6333902 -0.47132456 0.397954 0.21404563 -0.09319125 0.45877132 0.33143476
-0.5956837 -0.15625775 -0.0025641536 0.6340518

bias_ih_l0 f4 [28]
00000000: b125 f33e fd65 12bf fda8 c9be 2ce1 64be
00000010: c23a 533e b939 d6bd c5bc 5abf abf3 193f
00000020: d423 a43f 7e6a 753d cb11 643f 23a0 773f
00000030: 5908 383e 04ca a63f b61f 2c3f 683e adbe
00000040: b965 bbbd cf60 6b3f 1f02 013f 81e3 c43e
00000050: 91f0 d2bb 18b7 6b3f 5b2a 263f 855c 84bd
00000060: 92cc 96be bf9e 113f d000 f9b9 1d15 913f
0.47489694 -0.5718687 -0.3938674 -0.22351521 0.20627883 -0.104602285 -0.8544429 0.6013743
1.2823434 0.059916012 0.8908965 0.96728724 0.17971934 1.30304 0.6723589 -0.33836675
-0.091502614 0.91944593 0.5039386 0.38454822 -0.006437369 0.92076254 0.6490838 -0.06462959
-0.2945295 0.5688285 -0.00047493586 1.1334568

bias_hh_l0 f4 [28]
00000000: e2dd 933e c8c9 e3be 8be1 0abf feb8 02bf
00000010: 00e2 dabe f4a0 3fbc 9d78 8abf 70fb 273f
00000020: ddcf 793f f061 34be f164 803f bfb4 853f
00000030: bde0 fd3e da62 af3f 677d 703f eeeb 8e3e
00000040: c912 f3be e30f 853f 375c 3e3f 2bba a73e
00000050: 420f a03e f395 5c3f 69bd 5f3e b88c 653e
00000060: 6dc4 ce3d 5269 4f3e dc02 e13e b132 873f
0.2888022 -0.44489884 -0.542504 -0.51063526 -0.4275055 -0.011696089 -1.0818058 0.6561804
0.975828 -0.17615485 1.0030805 1.0445784 0.49585524 1.3702042 0.9394135 0.27914375
-0.4747527 1.0395473 0.7435946 0.32759222 0.3126164 0.86166304 0.21849598 0.22416961
0.10096059 0.2025502 0.43947494 1.0562345

weight f4 [1, 7]
00000000: 9771 3440 155b 8040 09e7 53bf 903c 65c0
00000010: 5c67 4bc0 eec3 2640 17bb 6b40
2.819433 4.0111184 -0.82774407 -3.5818214 -3.1781836 2.6057086 3.683294
