Physics Guided Machine Learning for a Lake Stratification Model/Output/sgd_dynlr_model_pretrain.pt (torch, 4707 bytes, 5 tensors)

weight_ih_l0 f4 [28, 9]
00000000: 8321 97be ce8f 00be ed14 c33e 649c 5cbe
00000010: 65d0 a33e 4cdb ad3e a414 fc3b 64f8 2c3d
00000020: 81aa 31be ec1c 8b3d 03e2 76be 6f80 793e
00000030: d16b 32bd 0245 11be 98df f73d 9a58 d63c
00000040: 2d5f ec3d b4f9 893c c96a bcbd dcb4 553e
00000050: fd7f b93e dcec b3bd 38f7 ae3e a38e 62bd
00000060: bef1 20be 216e 093e 6b19 d9bd 3590 c73d
00000070: 4614 863e 39f8 073e b6d9 823d c045 a43e
00000080: 8536 3f3e 0d75 ab3d 1232 3ebd c785 4ebe
00000090: aacb 243d e53e 88be e883 293e 3afc 043d
000000a0: 3aa6 b9bd 28b5 aebd 5497 743e 4d93 20be
000000b0: 2fa9 613e c3f1 b93e c243 923e 75b6 0fbe
000000c0: a5c6 a83e fd9a 973e f0b0 2abd 4299 68bd
000000d0: c657 813d ba15 eebc 93b8 e23e 215d c03e
000000e0: f98e 823e d554 b53e bcc3 483e 76a0 7dbe
000000f0: 355f 9abd f1a1 923e a2f9 4fbe 2151 d53d
00000100: 4296 18bc dadd 4f3e 5e3c f13e f34a ec3e
00000110: 8d86 923d 4ec0 2dbd 7487 0e3e 024e b8be
00000120: 2958 653e b48d 883d d10c 2f3e 4581 423e
00000130: 32cf 063e c8fc d43d fb11 883c 7160 98be
00000140: 5144 a8bd 4f3f 213d a4d8 6bbe e8d6 833c
00000150: 5feb 863d 1552 6bbc c0b4 883d fb02 a63d
00000160: ca46 a03e 1418 c1bd 2f01 863d d6cc 77be
00000170: ca4f e2bd 5c7c 61be c180 a43e b3af fabc
00000180: 7b32 d7bd 3406 66bd a8a6 833c 64f5 e6bd
00000190: e061 aebe e40a 7b3d a971 f63e e785 193f
000001a0: ba14 36be a098 22bd 5289 e63d e35b b6be
000001b0: f392 3b3e 12e8 f8bd 8515 293e 7251 4f3d
000001c0: 1af9 123e 29e1 5fbb 7cd9 72be 8c03 403e
000001d0: a5a2 95be 6574 383e 0d16 98be 6dab 7a3e
000001e0: 1f3f 933d 6316 29be 23c3 913e 1c3c ad3d
000001f0: 027d 31be 3cbf 403e 12ad b13e dc6d 05bf
00000200: 4562 283e 85b3 413e cf22 5fbe 0678 dabb
00000210: 1926 5ebd 37f0 0dbe a7d2 153e 8040 03bf
00000220: 80ac 51be 65e5 76bf b6ec a0bf 0272 65bf
00000230: 83c4 2cbd 5d2b 2b3e d83c e5bd 633b 5c3e
00000240: fc95 eb3e 8a5b 01c0 6430 32be 1afa 18be
00000250: 974f fd3c c0eb c1bd d4d5 a93c 79ba 9c3d
00000260: 62c2 1d3e 4a71 2b3f 896a 69bf 5922 17be
00000270: c4ef 0dbe 560a 37be bcac 233c 979b 3a3e
00000280: 680c 523d 652a 09be b097 18be 1a1b 9c3d
00000290: 5d48 d3be 75c3 07bf c85c 0fbf 6caf 09bd
000002a0: e813 0c3e c428 d1bd 8108 44be 8fcd cebe
000002b0: e346 c2bd f782 bf3d f3d3 2fbd 12ca 8d3d
000002c0: 73f8 babd 302e 703d e74f e2bc 7df4 6cbd
000002d0: 4810 6fbe e27d 05be bd40 c6be a4b1 0bbf
000002e0: af12 34bf 0f89 973e 179c 883d 7bc5 89be
000002f0: 812e ee3a 2c61 a3be 79d9 64bf c026 39be
00000300: 23aa 0ebe 9e0b 503e 4892 88be a37b 283e
00000310: c7bc c53c 1ddb 653e 0e14 ac3d 4327 e4be
00000320: 28b7 18bd 7a67 db3d ac5f b5be 9d14 183a
00000330: 4503 ad3d b7c6 e63c ab88 933d 8018 04bd
00000340: 956f d0be 04e8 663e 80ab b83e f24e 253e
00000350: 3bca bbbd b9f5 51bc 503f 893e 2ba8 23bc
00000360: cde2 9ebe 09a9 9dbf ef5e 65be a614 95bc
00000370: 2e10 02bf 70ed ccbc 914f 9b3d 41f5 b3bc
00000380: 178f 8a3e b55d 8cbd a6f7 09bf e087 823d
00000390: 2c0e f03e d30a bd3e 52c9 76be 6445 60be
000003a0: 8c62 1f3c 5137 ed3b d541 e1bd 8a89 cebf
000003b0: 0c2e 83bd 2a2e 89be b196 c1bd f9d3 d9bc
000003c0: a513 883d 1748 a33b 07d7 b43c f391 c83d
000003d0: d52a 2dbf 8f77 ec36 3ff5 6f3d ad2e 1c3c
000003e0: a858 89bd d398 59bd d62f 763d 2260 8ebc
-0.29517755 -0.12554857 0.38101903 -0.21544033 0.3199493 0.33956373 0.0076928902 0.04222907
-0.17350198 0.06792626 -0.24109654 0.243654 -0.043559853 -0.1418648 0.12103194 0.026165295
0.11541591 0.0168427 -0.09200055 0.20869774 0.3623046 -0.08785412 0.34172988 -0.05531181
-0.15717217 0.13420917 -0.10600551 0.09744302 0.26187342 0.13278283 0.06389181 0.32084465
0.18673141 0.08371935 -0.04643447 -0.2016822 0.04023329 -0.26610485 0.16554224 0.032467104
-0.09064908 -0.085306466 0.23885852 -0.15681191 0.22037195 0.36317262 0.2856732 -0.14034446
0.32964054 0.29610434 -0.041672647 -0.056786783 0.063155696 -0.029063094 0.44281444 0.37571052
0.25499704 0.35416284 0.19605917 -0.24768242 -0.075376906 0.28639176 -0.20310071 0.10415865
-0.009313168 0.20299473 0.4711637 0.46150932 0.0715457 -0.042419724 0.13918859 -0.35997015
0.22396912 0.06667653 0.17094733 0.18994625 0.13164976 0.10399777 0.016610136 -0.2976108
-0.08216155 0.039367016 -0.2303186 0.016093686 0.06587862 -0.014362832 0.066751 0.08106037
0.31304008 -0.09428421 0.065431945 -0.24199232 -0.11050375 -0.22020096 0.3212948 -0.030601358
-0.10507675 -0.05615826 0.016070679 -0.11277273 -0.34059048 0.061289683 0.4813359 0.59969944
-0.17781344 -0.039696336 0.112566605 -0.3561698 0.18317775 -0.12153639 0.16512115 0.05061478
0.14352837 -0.0034161306 -0.23715776 0.18751353 -0.2922565 0.18013151 -0.29704323 0.24479456
0.07189774 -0.16512446 0.2846919 0.084587306 -0.17332843 0.1882295 0.34702355 -0.5212076
0.16443737 0.18916138 -0.21790622 -0.00666714 -0.05423555 -0.13861166 0.14631139 -0.51270294
-0.2047596 -0.9644378 -1.2572238 -0.8962709 -0.042179596 0.1671576 -0.11193246 0.21507029
0.46012866 -2.021212 -0.17401272 -0.14939156 0.03092174 -0.09468794 0.020731844 0.07652754
0.15406182 0.6696974 -0.91178185 -0.14759196 -0.13860995 -0.17875037 0.009989914 0.18223415
0.051281363 -0.13395078 -0.14901614 0.07622357 -0.41266146 -0.5303262 -0.5600095 -0.03361456
0.13679469 -0.102128536 -0.19143869 -0.40391204 -0.09486177 0.093511514 -0.04292674 0.069233075
-0.09129419 0.058637798 -0.027625991 -0.05785035 -0.23346055 -0.13036302 -0.38721266 -0.54567933
-0.7034101 0.29596755 0.06670397 -0.26908478 0.0018171818 -0.31910074 -0.89394337 -0.18081188
-0.1393209 0.20316932 -0.26674104 0.16453414 0.024137868 0.22446866 0.08402263 -0.44561204
-0.037284046 0.10713096 -0.35424554 0.00058014115 0.08447889 0.028170926 0.07203802 -0.032249928
-0.4071013 0.22549444 0.36068344 0.16143396 -0.09169432 -0.0128149325 0.26806116 -0.009988825
-0.3103241 -1.231721 -0.22399496 -0.018198323 -0.5080594 -0.025015563 0.075835355 -0.021967532
0.27062294 -0.06853811 -0.53893507 0.06373572 0.46885812 0.3692232 -0.24100235 -0.2190147
0.009728085 0.0072392602 -0.109988846 -1.6135724 -0.06405267 -0.26793033 -0.0945257 -0.026590334
0.06644372 0.004982959 0.02207519 0.097934626 -0.6764348 7.0472665e-06 0.058583494 0.009532613
-0.06706363 -0.05312426 0.060104214 -0.017379824

weight_hh_l0 f4 [28, 7]
00000000: 85f6 4e3e eac9 8cbe f3cd debe 6dc4 edbe
00000010: 9d48 11bb b5be 0bbe f852 e53e 494a 32bd
00000020: 6ee1 99bd 6004 9b3d 531a 55be 3af1 04bf
00000030: 5be7 e2be 540f 983f 6e26 9a3e f5ee 09bf
00000040: 4acf 41be f06f 893e f1d4 c9be 5efd 8abd
00000050: a59d e3be 94cd bc3e dff1 9bbe 3176 623e
00000060: c7ed bcbc cf96 94be 67b4 51be fb4d 6ebe
00000070: a5fc 35be 94e0 393e 9312 c83e 154a e03e
00000080: 69a7 9ebd e14a 83be e82b 013f 0b5e 10be
00000090: 5477 1cbf 0692 72bd 605c 9fbe 14a0 2dbe
000000a0: ed44 81bd 2b3d 8d3e 9a85 283d a02b c7be
000000b0: 8b81 debd 3bef a7be d99e 4dbd 0351 3b3e
000000c0: 6e3c 193e f889 61be a853 6ebe 353a ec3e
000000d0: 7b93 ecbc be50 6cbe 18ac 94be 4ce2 37be
000000e0: 8d80 52be 93b9 283e 5bda 9a3e ea9e 353d
000000f0: 52e5 e7bd 6388 1cbe 49f2 22be 2afd 803e
00000100: 49c9 e2be 65da 303e 5ab0 95bd d574 d4be
00000110: 33f4 e1bd b98c 31be 8ea9 df3d 1a83 f1be
00000120: b8e0 103f d4b7 0e3f fc62 453e cdd9 7d3e
00000130: 2a1c f73d c6da c8be 50dd 4a3e 6838 043e
00000140: 6db5 213e b42b 3d3e e7c9 9d3e 37da e9bc
00000150: 287c 4c3e d548 11be 91bc e93b e8aa 6e3e
00000160: 15c0 90be 5f62 0dbe 1b3d 7ebe 6d0d 46be
00000170: f85e 54bd dffc f5bd 525e 05bd c5cc 643e
00000180: c58f e23e 20b5 8fbe b726 6dbe 8fc4 dabe
00000190: ca9f a73e 9a16 5fbe d517 f5be cc7c b6bd
000001a0: 46b8 023e e3d1 183f da1e 87be 4693 283f
000001b0: 5c03 883e 73af 39be e304 f43e 2177 283e
000001c0: 2d68 27be ff78 9a3e 9f16 b0be b189 f13d
000001d0: f679 09bf 8349 803e 0ac3 723f 153b 923e
000001e0: 8bbb 223f ec90 8f3b 10d8 4ebd 8eca 3ebe
000001f0: c1f7 923e 899b dc3e 9954 343e 4013 fb3e
00000200: b004 113f 9875 783e 2f6a 85be 12d3 67be
00000210: c2f7 aebe 8095 a13e 7058 0ebf 41c6 aa3e
00000220: 541f 4f3d 3367 bfbe 2034 3f3d dffd a13e
00000230: 09b1 d43e fd35 cd3e 09b1 723d 7d8b 1b3d
00000240: 8886 3e3c 8e96 9fbe 2516 103f 8ce8 b93e
00000250: 858c 4a3c b5ee 033f b24a 0f3f 73e3 9a3d
00000260: a89e 69bd 253c 88be d372 4c3e 40cf 63be
00000270: 0689 963e 4c14 193c 8d29 2fbe 9e3b f43c
00000280: 4bc0 0cbf c007 7bbc 5efc 41bf a9f7 083e
00000290: 6b32 06bd 6809 97be c4bb 893d fc21 42bf
000002a0: 1980 e53d 480d b2be feba 223f b440 863e
000002b0: e307 e73d 1af3 db3e c006 6fbe 4c24 913e
000002c0: 2103 12bc 3f38 153e b0b0 8e3e d63b afbe
000002d0: 78ab 0e3e 1db1 cfbd b345 1f3e db8a b8be
000002e0: ad8c 8d3e d798 923c 74a8 c0be 060c 9ebd
000002f0: 40f6 f6bd db70 ae3e f705 57bf 9704 083e
00000300: 0efd b63d 0d2b 16bd 7329 eb3e 3417 8abe
0.20211227 -0.27497798 -0.43516502 -0.46438923 -0.0022168525 -0.13646968 0.44789863 -0.043527875
-0.075137004 0.07569194 -0.20810823 -0.5193058 -0.44317135 1.1879678 0.30107445 -0.53880244
-0.18926731 0.26843214 -0.39420274 -0.06786607 -0.4445621 0.36875594 -0.3045797 0.22115399
-0.0230626 -0.29021308 -0.20478974 -0.23271935 -0.17772157 0.18152076 0.3907667 0.4380652
-0.07746775 -0.25643066 0.5045762 -0.14098375 -0.6111958 -0.05922129 -0.31125164 -0.16955596
-0.06311975 0.2758573 0.041143037 -0.3890047 -0.10864552 -0.32799706 -0.050200317 0.18292622
0.14964458 -0.22025287 -0.232741 0.46138158 -0.028878918 -0.23077676 -0.29037547 -0.17957419
-0.2055685 0.16477041 0.30244717 0.044341005 -0.11323036 -0.15286402 -0.15912737 0.2519315
-0.44294193 0.17270811 -0.07309027 -0.41495386 -0.110329054 -0.17338838 0.10921012 -0.47170335
0.56592894 0.5574925 0.19276041 0.24790116 0.12065919 -0.3922941 0.19810987 0.12912142
0.15791865 0.18473703 0.30818102 -0.028546436 0.19969237 -0.1418794 0.0071330746 0.23307383
-0.28271547 -0.13807057 -0.24827997 -0.19341059 -0.05184838 -0.12011122 -0.032560654 0.22343738
0.44250312 -0.28067875 -0.231593 -0.42728087 0.32739097 -0.21785966 -0.47869745 -0.08910522
0.12765607 0.5969526 -0.26390725 0.6584972 0.26565063 -0.18133335 0.47659978 0.16451694
-0.16348334 0.30170438 -0.3439226 0.11793841 -0.5370172 0.25056085 0.94828856 0.285607
0.6356742 0.0043812897 -0.050499022 -0.18631956 0.28704646 0.43087414 0.17610396 0.49038124
0.5664778 0.24263608 -0.26057574 -0.2263911 -0.341734 0.31559372 -0.55603695 0.3335438
0.050566986 -0.37383422 0.04668057 0.31639 0.41541317 0.40080252 0.059250865 0.037974823
0.011628754 -0.31169552 0.5628379 0.36310232 0.012362604 0.51536113 0.5597335 0.07562914
-0.057036072 -0.26608387 0.19965677 -0.22247028 0.29401416 0.009343218 -0.17105694 0.029813584
-0.54980916 -0.015321672 -0.75775707 0.13375725 -0.032762926 -0.29499364 0.067252666 -0.75833106
0.11206073 -0.34775758 0.6356658 0.2622124 0.11280801 0.4295891 -0.23342419 0.28348005
-0.008911879 0.14572237 0.27869177 -0.3422534 0.13932598 -0.101412036 0.15553932 -0.36043438
0.2764639 0.017895145 -0.3762852 -0.07717137 -0.12058687 0.34070477 -0.83993477 0.13283001
0.08934985 -0.03666215 0.4593006 -0.26970828

bias_ih_l0 f4 [28]
00000000: 6ab3 213d 9a5f 13bf e845 afbe a577 463d
00000010: a6cd fabe 1df5 88be d12d c8be d8bb bc3d
00000020: f2b3 c83f 6173 fd3d d895 c9bd 7252 61be
00000030: b5a6 493d 4053 443f 2af7 62be acbd 453c
00000040: e0ad 19bf cafd 973e 0ed7 023f 1bde 0a3f
00000050: b667 35bf fd5c e73e fa54 743f a9ee 123e
00000060: 2596 ebbd a894 15be 258a 9abd d0e2 683f
0.039477743 -0.5756775 -0.34233022 0.048453946 -0.48985022 -0.26749507 -0.39097455 0.09215516
1.5679915 0.123755224 -0.098430336 -0.22004107 0.04923125 0.7668953 -0.22164598 0.012069147
-0.6003094 0.29685813 0.511094 0.54245156 -0.70861375 0.45188132 0.95442164 0.14348854
-0.11503247 -0.14607489 -0.0754588 0.9097109

bias_hh_l0 f4 [28]
00000000: 445f cfbd a834 c2be 2e4c 9cbe 6885 d3be
00000010: 3ebd 0bbf fdf4 bebe 8766 4cbe 4a41 cabd
00000020: be9c 973f 5d7a f93d 29a0 973c 9b78 e13e
00000030: 4cbb b2bd 04cb 323f 2e03 e8be 74c2 933d
00000040: 2dca 9ebe e750 a03e d607 a53e 4cbf 183f
00000050: fb84 53bf 66dc f2bd e601 9c3f 38be 943e
00000060: ac04 863e 823a 953e e31f 2cbe 02a4 fe3e
-0.10125592 -0.379308 -0.3052687 -0.41312718 -0.54585636 -0.37296286 -0.19960986 -0.09875734
1.1844709 0.12181542 0.018508988 0.44037327 -0.0872713 0.6984103 -0.45314926 0.07214823
-0.31013623 0.31311724 0.3223254 0.59666896 -0.8262479 -0.11858444 1.2188079 0.29051375
0.2617544 0.291462 -0.16809039 0.49734503

weight f4 [1, 7]
00000000: 9a97 1540 4e49 95c0 62cc 3140 7810 5340
00000010: 467e cebf 5b83 3c40 e30a 6cc0
2.337378 -4.6651983 2.7780995 3.2978802 -1.6132286 2.9455173 -3.6881645
